[INFO/MainProcess/__main__]: Dimensionality of data: 149 x 200 x 3
[INFO/MainProcess/__main__]: Dimensionality of data: 149 x 200 x 3
[INFO/MainProcess/__main__]: _________________________________________________________________
[INFO/MainProcess/__main__]: Layer (type)                 Output Shape              Param #   
[INFO/MainProcess/__main__]: =================================================================
[INFO/MainProcess/__main__]: input_1 (InputLayer)         (None, 149, 200, 3)       0         
[INFO/MainProcess/__main__]: _________________________________________________________________
[INFO/MainProcess/__main__]: conv2d_1 (Conv2D)            (None, 149, 40, 16)       1216      
[INFO/MainProcess/__main__]: _________________________________________________________________
[INFO/MainProcess/__main__]: max_pooling2d_1 (MaxPooling2 (None, 149, 8, 16)        0         
[INFO/MainProcess/__main__]: _________________________________________________________________
[INFO/MainProcess/__main__]: conv2d_2 (Conv2D)            (None, 149, 2, 8)         3208      
[INFO/MainProcess/__main__]: _________________________________________________________________
[INFO/MainProcess/__main__]: max_pooling2d_2 (MaxPooling2 (None, 149, 1, 8)         0         
[INFO/MainProcess/__main__]: _________________________________________________________________
[INFO/MainProcess/__main__]: conv2d_3 (Conv2D)            (None, 149, 1, 4)         804       
[INFO/MainProcess/__main__]: _________________________________________________________________
[INFO/MainProcess/__main__]: max_pooling2d_3 (MaxPooling2 (None, 149, 1, 4)         0         
[INFO/MainProcess/__main__]: _________________________________________________________________
[INFO/MainProcess/__main__]: flatten_1 (Flatten)          (None, 596)               0         
[INFO/MainProcess/__main__]: =================================================================
[INFO/MainProcess/__main__]: Total params: 5,228
[INFO/MainProcess/__main__]: Trainable params: 5,228
[INFO/MainProcess/__main__]: Non-trainable params: 0
[INFO/MainProcess/__main__]: _________________________________________________________________
[INFO/MainProcess/__main__]: _________________________________________________________________
[INFO/MainProcess/__main__]: Layer (type)                 Output Shape              Param #   
[INFO/MainProcess/__main__]: =================================================================
[INFO/MainProcess/__main__]: input_2 (InputLayer)         (None, 596)               0         
[INFO/MainProcess/__main__]: _________________________________________________________________
[INFO/MainProcess/__main__]: reshape_1 (Reshape)          (None, 149, 1, 4)         0         
[INFO/MainProcess/__main__]: _________________________________________________________________
[INFO/MainProcess/__main__]: conv2d_4 (Conv2D)            (None, 149, 1, 4)         404       
[INFO/MainProcess/__main__]: _________________________________________________________________
[INFO/MainProcess/__main__]: up_sampling2d_1 (UpSampling2 (None, 149, 2, 4)         0         
[INFO/MainProcess/__main__]: _________________________________________________________________
[INFO/MainProcess/__main__]: conv2d_5 (Conv2D)            (None, 149, 2, 4)         404       
[INFO/MainProcess/__main__]: _________________________________________________________________
[INFO/MainProcess/__main__]: up_sampling2d_2 (UpSampling2 (None, 149, 8, 4)         0         
[INFO/MainProcess/__main__]: _________________________________________________________________
[INFO/MainProcess/__main__]: conv2d_6 (Conv2D)            (None, 149, 8, 8)         808       
[INFO/MainProcess/__main__]: _________________________________________________________________
[INFO/MainProcess/__main__]: up_sampling2d_3 (UpSampling2 (None, 149, 40, 8)        0         
[INFO/MainProcess/__main__]: _________________________________________________________________
[INFO/MainProcess/__main__]: conv2d_7 (Conv2D)            (None, 149, 40, 16)       3216      
[INFO/MainProcess/__main__]: _________________________________________________________________
[INFO/MainProcess/__main__]: up_sampling2d_4 (UpSampling2 (None, 149, 200, 16)      0         
[INFO/MainProcess/__main__]: _________________________________________________________________
[INFO/MainProcess/__main__]: conv2d_8 (Conv2D)            (None, 149, 200, 3)       435       
[INFO/MainProcess/__main__]: =================================================================
[INFO/MainProcess/__main__]: Total params: 5,267
[INFO/MainProcess/__main__]: Trainable params: 5,267
[INFO/MainProcess/__main__]: Non-trainable params: 0
[INFO/MainProcess/__main__]: _________________________________________________________________
[INFO/MainProcess/__main__]: Dimensionality of data: 149 x 200 x 3
[INFO/MainProcess/__main__]: _________________________________________________________________
[INFO/MainProcess/__main__]: Layer (type)                 Output Shape              Param #   
[INFO/MainProcess/__main__]: =================================================================
[INFO/MainProcess/__main__]: input_1 (InputLayer)         (None, 149, 200, 3)       0         
[INFO/MainProcess/__main__]: _________________________________________________________________
[INFO/MainProcess/__main__]: conv2d_1 (Conv2D)            (None, 149, 40, 16)       1216      
[INFO/MainProcess/__main__]: _________________________________________________________________
[INFO/MainProcess/__main__]: max_pooling2d_1 (MaxPooling2 (None, 149, 8, 16)        0         
[INFO/MainProcess/__main__]: _________________________________________________________________
[INFO/MainProcess/__main__]: conv2d_2 (Conv2D)            (None, 149, 2, 8)         3208      
[INFO/MainProcess/__main__]: _________________________________________________________________
[INFO/MainProcess/__main__]: max_pooling2d_2 (MaxPooling2 (None, 149, 1, 8)         0         
[INFO/MainProcess/__main__]: _________________________________________________________________
[INFO/MainProcess/__main__]: conv2d_3 (Conv2D)            (None, 149, 1, 4)         804       
[INFO/MainProcess/__main__]: _________________________________________________________________
[INFO/MainProcess/__main__]: max_pooling2d_3 (MaxPooling2 (None, 149, 1, 4)         0         
[INFO/MainProcess/__main__]: _________________________________________________________________
[INFO/MainProcess/__main__]: flatten_1 (Flatten)          (None, 596)               0         
[INFO/MainProcess/__main__]: =================================================================
[INFO/MainProcess/__main__]: Total params: 5,228
[INFO/MainProcess/__main__]: Trainable params: 5,228
[INFO/MainProcess/__main__]: Non-trainable params: 0
[INFO/MainProcess/__main__]: _________________________________________________________________
[INFO/MainProcess/__main__]: _________________________________________________________________
[INFO/MainProcess/__main__]: Layer (type)                 Output Shape              Param #   
[INFO/MainProcess/__main__]: =================================================================
[INFO/MainProcess/__main__]: input_2 (InputLayer)         (None, 596)               0         
[INFO/MainProcess/__main__]: _________________________________________________________________
[INFO/MainProcess/__main__]: reshape_1 (Reshape)          (None, 149, 1, 4)         0         
[INFO/MainProcess/__main__]: _________________________________________________________________
[INFO/MainProcess/__main__]: conv2d_4 (Conv2D)            (None, 149, 1, 4)         404       
[INFO/MainProcess/__main__]: _________________________________________________________________
[INFO/MainProcess/__main__]: up_sampling2d_1 (UpSampling2 (None, 149, 2, 4)         0         
[INFO/MainProcess/__main__]: _________________________________________________________________
[INFO/MainProcess/__main__]: conv2d_5 (Conv2D)            (None, 149, 2, 4)         404       
[INFO/MainProcess/__main__]: _________________________________________________________________
[INFO/MainProcess/__main__]: up_sampling2d_2 (UpSampling2 (None, 149, 8, 4)         0         
[INFO/MainProcess/__main__]: _________________________________________________________________
[INFO/MainProcess/__main__]: conv2d_6 (Conv2D)            (None, 149, 8, 8)         808       
[INFO/MainProcess/__main__]: _________________________________________________________________
[INFO/MainProcess/__main__]: up_sampling2d_3 (UpSampling2 (None, 149, 40, 8)        0         
[INFO/MainProcess/__main__]: _________________________________________________________________
[INFO/MainProcess/__main__]: conv2d_7 (Conv2D)            (None, 149, 40, 16)       3216      
[INFO/MainProcess/__main__]: _________________________________________________________________
[INFO/MainProcess/__main__]: up_sampling2d_4 (UpSampling2 (None, 149, 200, 16)      0         
[INFO/MainProcess/__main__]: _________________________________________________________________
[INFO/MainProcess/__main__]: conv2d_8 (Conv2D)            (None, 149, 200, 3)       435       
[INFO/MainProcess/__main__]: =================================================================
[INFO/MainProcess/__main__]: Total params: 5,267
[INFO/MainProcess/__main__]: Trainable params: 5,267
[INFO/MainProcess/__main__]: Non-trainable params: 0
[INFO/MainProcess/__main__]: _________________________________________________________________
[INFO/MainProcess/__main__]: Dimensionality of data: 149 x 200 x 3
[INFO/MainProcess/__main__]: _________________________________________________________________
[INFO/MainProcess/__main__]: Layer (type)                 Output Shape              Param #   
[INFO/MainProcess/__main__]: =================================================================
[INFO/MainProcess/__main__]: input_1 (InputLayer)         (None, 149, 200, 3)       0         
[INFO/MainProcess/__main__]: _________________________________________________________________
[INFO/MainProcess/__main__]: conv2d_1 (Conv2D)            (None, 149, 40, 16)       1216      
[INFO/MainProcess/__main__]: _________________________________________________________________
[INFO/MainProcess/__main__]: max_pooling2d_1 (MaxPooling2 (None, 149, 8, 16)        0         
[INFO/MainProcess/__main__]: _________________________________________________________________
[INFO/MainProcess/__main__]: conv2d_2 (Conv2D)            (None, 149, 2, 8)         3208      
[INFO/MainProcess/__main__]: _________________________________________________________________
[INFO/MainProcess/__main__]: max_pooling2d_2 (MaxPooling2 (None, 149, 1, 8)         0         
[INFO/MainProcess/__main__]: _________________________________________________________________
[INFO/MainProcess/__main__]: conv2d_3 (Conv2D)            (None, 149, 1, 4)         804       
[INFO/MainProcess/__main__]: _________________________________________________________________
[INFO/MainProcess/__main__]: max_pooling2d_3 (MaxPooling2 (None, 149, 1, 4)         0         
[INFO/MainProcess/__main__]: _________________________________________________________________
[INFO/MainProcess/__main__]: flatten_1 (Flatten)          (None, 596)               0         
[INFO/MainProcess/__main__]: =================================================================
[INFO/MainProcess/__main__]: Total params: 5,228
[INFO/MainProcess/__main__]: Trainable params: 5,228
[INFO/MainProcess/__main__]: Non-trainable params: 0
[INFO/MainProcess/__main__]: _________________________________________________________________
[INFO/MainProcess/__main__]: _________________________________________________________________
[INFO/MainProcess/__main__]: Layer (type)                 Output Shape              Param #   
[INFO/MainProcess/__main__]: =================================================================
[INFO/MainProcess/__main__]: input_2 (InputLayer)         (None, 596)               0         
[INFO/MainProcess/__main__]: _________________________________________________________________
[INFO/MainProcess/__main__]: reshape_1 (Reshape)          (None, 149, 1, 4)         0         
[INFO/MainProcess/__main__]: _________________________________________________________________
[INFO/MainProcess/__main__]: conv2d_4 (Conv2D)            (None, 149, 1, 4)         404       
[INFO/MainProcess/__main__]: _________________________________________________________________
[INFO/MainProcess/__main__]: up_sampling2d_1 (UpSampling2 (None, 149, 2, 4)         0         
[INFO/MainProcess/__main__]: _________________________________________________________________
[INFO/MainProcess/__main__]: conv2d_5 (Conv2D)            (None, 149, 2, 4)         404       
[INFO/MainProcess/__main__]: _________________________________________________________________
[INFO/MainProcess/__main__]: up_sampling2d_2 (UpSampling2 (None, 149, 8, 4)         0         
[INFO/MainProcess/__main__]: _________________________________________________________________
[INFO/MainProcess/__main__]: conv2d_6 (Conv2D)            (None, 149, 8, 8)         808       
[INFO/MainProcess/__main__]: _________________________________________________________________
[INFO/MainProcess/__main__]: up_sampling2d_3 (UpSampling2 (None, 149, 40, 8)        0         
[INFO/MainProcess/__main__]: _________________________________________________________________
[INFO/MainProcess/__main__]: conv2d_7 (Conv2D)            (None, 149, 40, 16)       3216      
[INFO/MainProcess/__main__]: _________________________________________________________________
[INFO/MainProcess/__main__]: up_sampling2d_4 (UpSampling2 (None, 149, 200, 16)      0         
[INFO/MainProcess/__main__]: _________________________________________________________________
[INFO/MainProcess/__main__]: conv2d_8 (Conv2D)            (None, 149, 200, 3)       435       
[INFO/MainProcess/__main__]: =================================================================
[INFO/MainProcess/__main__]: Total params: 5,267
[INFO/MainProcess/__main__]: Trainable params: 5,267
[INFO/MainProcess/__main__]: Non-trainable params: 0
[INFO/MainProcess/__main__]: _________________________________________________________________
[INFO/MainProcess/__main__]: Dimensionality of data: 149 x 200 x 3
[INFO/MainProcess/__main__]: _________________________________________________________________
[INFO/MainProcess/__main__]: Layer (type)                 Output Shape              Param #   
[INFO/MainProcess/__main__]: =================================================================
[INFO/MainProcess/__main__]: input_1 (InputLayer)         (None, 149, 200, 3)       0         
[INFO/MainProcess/__main__]: _________________________________________________________________
[INFO/MainProcess/__main__]: conv2d_1 (Conv2D)            (None, 149, 40, 16)       1216      
[INFO/MainProcess/__main__]: _________________________________________________________________
[INFO/MainProcess/__main__]: max_pooling2d_1 (MaxPooling2 (None, 149, 8, 16)        0         
[INFO/MainProcess/__main__]: _________________________________________________________________
[INFO/MainProcess/__main__]: conv2d_2 (Conv2D)            (None, 149, 2, 8)         3208      
[INFO/MainProcess/__main__]: _________________________________________________________________
[INFO/MainProcess/__main__]: max_pooling2d_2 (MaxPooling2 (None, 149, 1, 8)         0         
[INFO/MainProcess/__main__]: _________________________________________________________________
[INFO/MainProcess/__main__]: conv2d_3 (Conv2D)            (None, 149, 1, 4)         804       
[INFO/MainProcess/__main__]: _________________________________________________________________
[INFO/MainProcess/__main__]: max_pooling2d_3 (MaxPooling2 (None, 149, 1, 4)         0         
[INFO/MainProcess/__main__]: _________________________________________________________________
[INFO/MainProcess/__main__]: flatten_1 (Flatten)          (None, 596)               0         
[INFO/MainProcess/__main__]: =================================================================
[INFO/MainProcess/__main__]: Total params: 5,228
[INFO/MainProcess/__main__]: Trainable params: 5,228
[INFO/MainProcess/__main__]: Non-trainable params: 0
[INFO/MainProcess/__main__]: _________________________________________________________________
[INFO/MainProcess/__main__]: _________________________________________________________________
[INFO/MainProcess/__main__]: Layer (type)                 Output Shape              Param #   
[INFO/MainProcess/__main__]: =================================================================
[INFO/MainProcess/__main__]: input_2 (InputLayer)         (None, 596)               0         
[INFO/MainProcess/__main__]: _________________________________________________________________
[INFO/MainProcess/__main__]: reshape_1 (Reshape)          (None, 149, 1, 4)         0         
[INFO/MainProcess/__main__]: _________________________________________________________________
[INFO/MainProcess/__main__]: conv2d_4 (Conv2D)            (None, 149, 1, 4)         404       
[INFO/MainProcess/__main__]: _________________________________________________________________
[INFO/MainProcess/__main__]: up_sampling2d_1 (UpSampling2 (None, 149, 2, 4)         0         
[INFO/MainProcess/__main__]: _________________________________________________________________
[INFO/MainProcess/__main__]: conv2d_5 (Conv2D)            (None, 149, 2, 4)         404       
[INFO/MainProcess/__main__]: _________________________________________________________________
[INFO/MainProcess/__main__]: up_sampling2d_2 (UpSampling2 (None, 149, 8, 4)         0         
[INFO/MainProcess/__main__]: _________________________________________________________________
[INFO/MainProcess/__main__]: conv2d_6 (Conv2D)            (None, 149, 8, 8)         808       
[INFO/MainProcess/__main__]: _________________________________________________________________
[INFO/MainProcess/__main__]: up_sampling2d_3 (UpSampling2 (None, 149, 40, 8)        0         
[INFO/MainProcess/__main__]: _________________________________________________________________
[INFO/MainProcess/__main__]: conv2d_7 (Conv2D)            (None, 149, 40, 16)       3216      
[INFO/MainProcess/__main__]: _________________________________________________________________
[INFO/MainProcess/__main__]: up_sampling2d_4 (UpSampling2 (None, 149, 200, 16)      0         
[INFO/MainProcess/__main__]: _________________________________________________________________
[INFO/MainProcess/__main__]: conv2d_8 (Conv2D)            (None, 149, 200, 3)       435       
[INFO/MainProcess/__main__]: =================================================================
[INFO/MainProcess/__main__]: Total params: 5,267
[INFO/MainProcess/__main__]: Trainable params: 5,267
[INFO/MainProcess/__main__]: Non-trainable params: 0
[INFO/MainProcess/__main__]: _________________________________________________________________
[INFO/MainProcess/__main__]: Dimensionality of data: 149 x 200 x 3
[INFO/MainProcess/__main__]: _________________________________________________________________
[INFO/MainProcess/__main__]: Layer (type)                 Output Shape              Param #   
[INFO/MainProcess/__main__]: =================================================================
[INFO/MainProcess/__main__]: input_1 (InputLayer)         (None, 149, 200, 3)       0         
[INFO/MainProcess/__main__]: _________________________________________________________________
[INFO/MainProcess/__main__]: conv2d_1 (Conv2D)            (None, 149, 40, 16)       1216      
[INFO/MainProcess/__main__]: _________________________________________________________________
[INFO/MainProcess/__main__]: max_pooling2d_1 (MaxPooling2 (None, 149, 8, 16)        0         
[INFO/MainProcess/__main__]: _________________________________________________________________
[INFO/MainProcess/__main__]: conv2d_2 (Conv2D)            (None, 149, 2, 8)         3208      
[INFO/MainProcess/__main__]: _________________________________________________________________
[INFO/MainProcess/__main__]: max_pooling2d_2 (MaxPooling2 (None, 149, 1, 8)         0         
[INFO/MainProcess/__main__]: _________________________________________________________________
[INFO/MainProcess/__main__]: conv2d_3 (Conv2D)            (None, 149, 1, 4)         804       
[INFO/MainProcess/__main__]: _________________________________________________________________
[INFO/MainProcess/__main__]: max_pooling2d_3 (MaxPooling2 (None, 149, 1, 4)         0         
[INFO/MainProcess/__main__]: _________________________________________________________________
[INFO/MainProcess/__main__]: flatten_1 (Flatten)          (None, 596)               0         
[INFO/MainProcess/__main__]: =================================================================
[INFO/MainProcess/__main__]: Total params: 5,228
[INFO/MainProcess/__main__]: Trainable params: 5,228
[INFO/MainProcess/__main__]: Non-trainable params: 0
[INFO/MainProcess/__main__]: _________________________________________________________________
[INFO/MainProcess/__main__]: _________________________________________________________________
[INFO/MainProcess/__main__]: Layer (type)                 Output Shape              Param #   
[INFO/MainProcess/__main__]: =================================================================
[INFO/MainProcess/__main__]: input_2 (InputLayer)         (None, 596)               0         
[INFO/MainProcess/__main__]: _________________________________________________________________
[INFO/MainProcess/__main__]: reshape_1 (Reshape)          (None, 149, 1, 4)         0         
[INFO/MainProcess/__main__]: _________________________________________________________________
[INFO/MainProcess/__main__]: conv2d_4 (Conv2D)            (None, 149, 1, 4)         404       
[INFO/MainProcess/__main__]: _________________________________________________________________
[INFO/MainProcess/__main__]: up_sampling2d_1 (UpSampling2 (None, 149, 2, 4)         0         
[INFO/MainProcess/__main__]: _________________________________________________________________
[INFO/MainProcess/__main__]: conv2d_5 (Conv2D)            (None, 149, 2, 4)         404       
[INFO/MainProcess/__main__]: _________________________________________________________________
[INFO/MainProcess/__main__]: up_sampling2d_2 (UpSampling2 (None, 149, 8, 4)         0         
[INFO/MainProcess/__main__]: _________________________________________________________________
[INFO/MainProcess/__main__]: conv2d_6 (Conv2D)            (None, 149, 8, 8)         808       
[INFO/MainProcess/__main__]: _________________________________________________________________
[INFO/MainProcess/__main__]: up_sampling2d_3 (UpSampling2 (None, 149, 40, 8)        0         
[INFO/MainProcess/__main__]: _________________________________________________________________
[INFO/MainProcess/__main__]: conv2d_7 (Conv2D)            (None, 149, 40, 16)       3216      
[INFO/MainProcess/__main__]: _________________________________________________________________
[INFO/MainProcess/__main__]: up_sampling2d_4 (UpSampling2 (None, 149, 200, 16)      0         
[INFO/MainProcess/__main__]: _________________________________________________________________
[INFO/MainProcess/__main__]: conv2d_8 (Conv2D)            (None, 149, 200, 3)       435       
[INFO/MainProcess/__main__]: =================================================================
[INFO/MainProcess/__main__]: Total params: 5,267
[INFO/MainProcess/__main__]: Trainable params: 5,267
[INFO/MainProcess/__main__]: Non-trainable params: 0
[INFO/MainProcess/__main__]: _________________________________________________________________
[INFO/MainProcess/__main__]: Dimensionality of data: 149 x 200 x 3
[INFO/MainProcess/__main__]: _________________________________________________________________
[INFO/MainProcess/__main__]: Layer (type)                 Output Shape              Param #   
[INFO/MainProcess/__main__]: =================================================================
[INFO/MainProcess/__main__]: input_1 (InputLayer)         (None, 149, 200, 3)       0         
[INFO/MainProcess/__main__]: _________________________________________________________________
[INFO/MainProcess/__main__]: conv2d_1 (Conv2D)            (None, 149, 40, 16)       1216      
[INFO/MainProcess/__main__]: _________________________________________________________________
[INFO/MainProcess/__main__]: max_pooling2d_1 (MaxPooling2 (None, 149, 8, 16)        0         
[INFO/MainProcess/__main__]: _________________________________________________________________
[INFO/MainProcess/__main__]: conv2d_2 (Conv2D)            (None, 149, 2, 8)         3208      
[INFO/MainProcess/__main__]: _________________________________________________________________
[INFO/MainProcess/__main__]: max_pooling2d_2 (MaxPooling2 (None, 149, 1, 8)         0         
[INFO/MainProcess/__main__]: _________________________________________________________________
[INFO/MainProcess/__main__]: conv2d_3 (Conv2D)            (None, 149, 1, 4)         804       
[INFO/MainProcess/__main__]: _________________________________________________________________
[INFO/MainProcess/__main__]: max_pooling2d_3 (MaxPooling2 (None, 149, 1, 4)         0         
[INFO/MainProcess/__main__]: _________________________________________________________________
[INFO/MainProcess/__main__]: flatten_1 (Flatten)          (None, 596)               0         
[INFO/MainProcess/__main__]: =================================================================
[INFO/MainProcess/__main__]: Total params: 5,228
[INFO/MainProcess/__main__]: Trainable params: 5,228
[INFO/MainProcess/__main__]: Non-trainable params: 0
[INFO/MainProcess/__main__]: _________________________________________________________________
[INFO/MainProcess/__main__]: _________________________________________________________________
[INFO/MainProcess/__main__]: Layer (type)                 Output Shape              Param #   
[INFO/MainProcess/__main__]: =================================================================
[INFO/MainProcess/__main__]: input_2 (InputLayer)         (None, 596)               0         
[INFO/MainProcess/__main__]: _________________________________________________________________
[INFO/MainProcess/__main__]: reshape_1 (Reshape)          (None, 149, 1, 4)         0         
[INFO/MainProcess/__main__]: _________________________________________________________________
[INFO/MainProcess/__main__]: conv2d_4 (Conv2D)            (None, 149, 1, 4)         404       
[INFO/MainProcess/__main__]: _________________________________________________________________
[INFO/MainProcess/__main__]: up_sampling2d_1 (UpSampling2 (None, 149, 2, 4)         0         
[INFO/MainProcess/__main__]: _________________________________________________________________
[INFO/MainProcess/__main__]: conv2d_5 (Conv2D)            (None, 149, 2, 4)         404       
[INFO/MainProcess/__main__]: _________________________________________________________________
[INFO/MainProcess/__main__]: up_sampling2d_2 (UpSampling2 (None, 149, 8, 4)         0         
[INFO/MainProcess/__main__]: _________________________________________________________________
[INFO/MainProcess/__main__]: conv2d_6 (Conv2D)            (None, 149, 8, 8)         808       
[INFO/MainProcess/__main__]: _________________________________________________________________
[INFO/MainProcess/__main__]: up_sampling2d_3 (UpSampling2 (None, 149, 40, 8)        0         
[INFO/MainProcess/__main__]: _________________________________________________________________
[INFO/MainProcess/__main__]: conv2d_7 (Conv2D)            (None, 149, 40, 16)       3216      
[INFO/MainProcess/__main__]: _________________________________________________________________
[INFO/MainProcess/__main__]: up_sampling2d_4 (UpSampling2 (None, 149, 200, 16)      0         
[INFO/MainProcess/__main__]: _________________________________________________________________
[INFO/MainProcess/__main__]: conv2d_8 (Conv2D)            (None, 149, 200, 3)       435       
[INFO/MainProcess/__main__]: =================================================================
[INFO/MainProcess/__main__]: Total params: 5,267
[INFO/MainProcess/__main__]: Trainable params: 5,267
[INFO/MainProcess/__main__]: Non-trainable params: 0
[INFO/MainProcess/__main__]: _________________________________________________________________
[INFO/MainProcess/__main__]: Dimensionality of data: 149 x 200 x 3
[INFO/MainProcess/__main__]: _________________________________________________________________
[INFO/MainProcess/__main__]: Layer (type)                 Output Shape              Param #   
[INFO/MainProcess/__main__]: =================================================================
[INFO/MainProcess/__main__]: input_1 (InputLayer)         (None, 149, 200, 3)       0         
[INFO/MainProcess/__main__]: _________________________________________________________________
[INFO/MainProcess/__main__]: conv2d_1 (Conv2D)            (None, 149, 40, 16)       1216      
[INFO/MainProcess/__main__]: _________________________________________________________________
[INFO/MainProcess/__main__]: max_pooling2d_1 (MaxPooling2 (None, 149, 8, 16)        0         
[INFO/MainProcess/__main__]: _________________________________________________________________
[INFO/MainProcess/__main__]: conv2d_2 (Conv2D)            (None, 149, 2, 8)         3208      
[INFO/MainProcess/__main__]: _________________________________________________________________
[INFO/MainProcess/__main__]: max_pooling2d_2 (MaxPooling2 (None, 149, 1, 8)         0         
[INFO/MainProcess/__main__]: _________________________________________________________________
[INFO/MainProcess/__main__]: conv2d_3 (Conv2D)            (None, 149, 1, 4)         804       
[INFO/MainProcess/__main__]: _________________________________________________________________
[INFO/MainProcess/__main__]: max_pooling2d_3 (MaxPooling2 (None, 149, 1, 4)         0         
[INFO/MainProcess/__main__]: _________________________________________________________________
[INFO/MainProcess/__main__]: flatten_1 (Flatten)          (None, 596)               0         
[INFO/MainProcess/__main__]: =================================================================
[INFO/MainProcess/__main__]: Total params: 5,228
[INFO/MainProcess/__main__]: Trainable params: 5,228
[INFO/MainProcess/__main__]: Non-trainable params: 0
[INFO/MainProcess/__main__]: _________________________________________________________________
[INFO/MainProcess/__main__]: _________________________________________________________________
[INFO/MainProcess/__main__]: Layer (type)                 Output Shape              Param #   
[INFO/MainProcess/__main__]: =================================================================
[INFO/MainProcess/__main__]: input_2 (InputLayer)         (None, 596)               0         
[INFO/MainProcess/__main__]: _________________________________________________________________
[INFO/MainProcess/__main__]: reshape_1 (Reshape)          (None, 149, 1, 4)         0         
[INFO/MainProcess/__main__]: _________________________________________________________________
[INFO/MainProcess/__main__]: conv2d_4 (Conv2D)            (None, 149, 1, 4)         404       
[INFO/MainProcess/__main__]: _________________________________________________________________
[INFO/MainProcess/__main__]: up_sampling2d_1 (UpSampling2 (None, 149, 2, 4)         0         
[INFO/MainProcess/__main__]: _________________________________________________________________
[INFO/MainProcess/__main__]: conv2d_5 (Conv2D)            (None, 149, 2, 4)         404       
[INFO/MainProcess/__main__]: _________________________________________________________________
[INFO/MainProcess/__main__]: up_sampling2d_2 (UpSampling2 (None, 149, 8, 4)         0         
[INFO/MainProcess/__main__]: _________________________________________________________________
[INFO/MainProcess/__main__]: conv2d_6 (Conv2D)            (None, 149, 8, 8)         808       
[INFO/MainProcess/__main__]: _________________________________________________________________
[INFO/MainProcess/__main__]: up_sampling2d_3 (UpSampling2 (None, 149, 40, 8)        0         
[INFO/MainProcess/__main__]: _________________________________________________________________
[INFO/MainProcess/__main__]: conv2d_7 (Conv2D)            (None, 149, 40, 16)       3216      
[INFO/MainProcess/__main__]: _________________________________________________________________
[INFO/MainProcess/__main__]: up_sampling2d_4 (UpSampling2 (None, 149, 200, 16)      0         
[INFO/MainProcess/__main__]: _________________________________________________________________
[INFO/MainProcess/__main__]: conv2d_8 (Conv2D)            (None, 149, 200, 3)       435       
[INFO/MainProcess/__main__]: =================================================================
[INFO/MainProcess/__main__]: Total params: 5,267
[INFO/MainProcess/__main__]: Trainable params: 5,267
[INFO/MainProcess/__main__]: Non-trainable params: 0
[INFO/MainProcess/__main__]: _________________________________________________________________
0	0.0045741681870487	0.5408939940399594	0.07819885863312359	0.447724778076698
[INFO/MainProcess/__main__]: Dimensionality of data: 149 x 200 x 3
[INFO/MainProcess/__main__]: _________________________________________________________________
[INFO/MainProcess/__main__]: Layer (type)                 Output Shape              Param #   
[INFO/MainProcess/__main__]: =================================================================
[INFO/MainProcess/__main__]: input_1 (InputLayer)         (None, 149, 200, 3)       0         
[INFO/MainProcess/__main__]: _________________________________________________________________
[INFO/MainProcess/__main__]: conv2d_1 (Conv2D)            (None, 149, 40, 16)       1216      
[INFO/MainProcess/__main__]: _________________________________________________________________
[INFO/MainProcess/__main__]: max_pooling2d_1 (MaxPooling2 (None, 149, 8, 16)        0         
[INFO/MainProcess/__main__]: _________________________________________________________________
[INFO/MainProcess/__main__]: conv2d_2 (Conv2D)            (None, 149, 2, 8)         3208      
[INFO/MainProcess/__main__]: _________________________________________________________________
[INFO/MainProcess/__main__]: max_pooling2d_2 (MaxPooling2 (None, 149, 1, 8)         0         
[INFO/MainProcess/__main__]: _________________________________________________________________
[INFO/MainProcess/__main__]: conv2d_3 (Conv2D)            (None, 149, 1, 4)         804       
[INFO/MainProcess/__main__]: _________________________________________________________________
[INFO/MainProcess/__main__]: max_pooling2d_3 (MaxPooling2 (None, 149, 1, 4)         0         
[INFO/MainProcess/__main__]: _________________________________________________________________
[INFO/MainProcess/__main__]: flatten_1 (Flatten)          (None, 596)               0         
[INFO/MainProcess/__main__]: =================================================================
[INFO/MainProcess/__main__]: Total params: 5,228
[INFO/MainProcess/__main__]: Trainable params: 5,228
[INFO/MainProcess/__main__]: Non-trainable params: 0
[INFO/MainProcess/__main__]: _________________________________________________________________
[INFO/MainProcess/__main__]: _________________________________________________________________
[INFO/MainProcess/__main__]: Layer (type)                 Output Shape              Param #   
[INFO/MainProcess/__main__]: =================================================================
[INFO/MainProcess/__main__]: input_2 (InputLayer)         (None, 596)               0         
[INFO/MainProcess/__main__]: _________________________________________________________________
[INFO/MainProcess/__main__]: reshape_1 (Reshape)          (None, 149, 1, 4)         0         
[INFO/MainProcess/__main__]: _________________________________________________________________
[INFO/MainProcess/__main__]: conv2d_4 (Conv2D)            (None, 149, 1, 4)         404       
[INFO/MainProcess/__main__]: _________________________________________________________________
[INFO/MainProcess/__main__]: up_sampling2d_1 (UpSampling2 (None, 149, 2, 4)         0         
[INFO/MainProcess/__main__]: _________________________________________________________________
[INFO/MainProcess/__main__]: conv2d_5 (Conv2D)            (None, 149, 2, 4)         404       
[INFO/MainProcess/__main__]: _________________________________________________________________
[INFO/MainProcess/__main__]: up_sampling2d_2 (UpSampling2 (None, 149, 8, 4)         0         
[INFO/MainProcess/__main__]: _________________________________________________________________
[INFO/MainProcess/__main__]: conv2d_6 (Conv2D)            (None, 149, 8, 8)         808       
[INFO/MainProcess/__main__]: _________________________________________________________________
[INFO/MainProcess/__main__]: up_sampling2d_3 (UpSampling2 (None, 149, 40, 8)        0         
[INFO/MainProcess/__main__]: _________________________________________________________________
[INFO/MainProcess/__main__]: conv2d_7 (Conv2D)            (None, 149, 40, 16)       3216      
[INFO/MainProcess/__main__]: _________________________________________________________________
[INFO/MainProcess/__main__]: up_sampling2d_4 (UpSampling2 (None, 149, 200, 16)      0         
[INFO/MainProcess/__main__]: _________________________________________________________________
[INFO/MainProcess/__main__]: conv2d_8 (Conv2D)            (None, 149, 200, 3)       435       
[INFO/MainProcess/__main__]: =================================================================
[INFO/MainProcess/__main__]: Total params: 5,267
[INFO/MainProcess/__main__]: Trainable params: 5,267
[INFO/MainProcess/__main__]: Non-trainable params: 0
[INFO/MainProcess/__main__]: _________________________________________________________________
[INFO/MainProcess/__main__]: Dimensionality of data: 149 x 200 x 3
[INFO/MainProcess/__main__]: _________________________________________________________________
[INFO/MainProcess/__main__]: Layer (type)                 Output Shape              Param #   
[INFO/MainProcess/__main__]: =================================================================
[INFO/MainProcess/__main__]: input_1 (InputLayer)         (None, 149, 200, 3)       0         
[INFO/MainProcess/__main__]: _________________________________________________________________
[INFO/MainProcess/__main__]: conv2d_1 (Conv2D)            (None, 149, 40, 16)       1216      
[INFO/MainProcess/__main__]: _________________________________________________________________
[INFO/MainProcess/__main__]: max_pooling2d_1 (MaxPooling2 (None, 149, 8, 16)        0         
[INFO/MainProcess/__main__]: _________________________________________________________________
[INFO/MainProcess/__main__]: conv2d_2 (Conv2D)            (None, 149, 2, 8)         3208      
[INFO/MainProcess/__main__]: _________________________________________________________________
[INFO/MainProcess/__main__]: max_pooling2d_2 (MaxPooling2 (None, 149, 1, 8)         0         
[INFO/MainProcess/__main__]: _________________________________________________________________
[INFO/MainProcess/__main__]: conv2d_3 (Conv2D)            (None, 149, 1, 4)         804       
[INFO/MainProcess/__main__]: _________________________________________________________________
[INFO/MainProcess/__main__]: max_pooling2d_3 (MaxPooling2 (None, 149, 1, 4)         0         
[INFO/MainProcess/__main__]: _________________________________________________________________
[INFO/MainProcess/__main__]: flatten_1 (Flatten)          (None, 596)               0         
[INFO/MainProcess/__main__]: =================================================================
[INFO/MainProcess/__main__]: Total params: 5,228
[INFO/MainProcess/__main__]: Trainable params: 5,228
[INFO/MainProcess/__main__]: Non-trainable params: 0
[INFO/MainProcess/__main__]: _________________________________________________________________
[INFO/MainProcess/__main__]: _________________________________________________________________
[INFO/MainProcess/__main__]: Layer (type)                 Output Shape              Param #   
[INFO/MainProcess/__main__]: =================================================================
[INFO/MainProcess/__main__]: input_2 (InputLayer)         (None, 596)               0         
[INFO/MainProcess/__main__]: _________________________________________________________________
[INFO/MainProcess/__main__]: reshape_1 (Reshape)          (None, 149, 1, 4)         0         
[INFO/MainProcess/__main__]: _________________________________________________________________
[INFO/MainProcess/__main__]: conv2d_4 (Conv2D)            (None, 149, 1, 4)         404       
[INFO/MainProcess/__main__]: _________________________________________________________________
[INFO/MainProcess/__main__]: up_sampling2d_1 (UpSampling2 (None, 149, 2, 4)         0         
[INFO/MainProcess/__main__]: _________________________________________________________________
[INFO/MainProcess/__main__]: conv2d_5 (Conv2D)            (None, 149, 2, 4)         404       
[INFO/MainProcess/__main__]: _________________________________________________________________
[INFO/MainProcess/__main__]: up_sampling2d_2 (UpSampling2 (None, 149, 8, 4)         0         
[INFO/MainProcess/__main__]: _________________________________________________________________
[INFO/MainProcess/__main__]: conv2d_6 (Conv2D)            (None, 149, 8, 8)         808       
[INFO/MainProcess/__main__]: _________________________________________________________________
[INFO/MainProcess/__main__]: up_sampling2d_3 (UpSampling2 (None, 149, 40, 8)        0         
[INFO/MainProcess/__main__]: _________________________________________________________________
[INFO/MainProcess/__main__]: conv2d_7 (Conv2D)            (None, 149, 40, 16)       3216      
[INFO/MainProcess/__main__]: _________________________________________________________________
[INFO/MainProcess/__main__]: up_sampling2d_4 (UpSampling2 (None, 149, 200, 16)      0         
[INFO/MainProcess/__main__]: _________________________________________________________________
[INFO/MainProcess/__main__]: conv2d_8 (Conv2D)            (None, 149, 200, 3)       435       
[INFO/MainProcess/__main__]: =================================================================
[INFO/MainProcess/__main__]: Total params: 5,267
[INFO/MainProcess/__main__]: Trainable params: 5,267
[INFO/MainProcess/__main__]: Non-trainable params: 0
[INFO/MainProcess/__main__]: _________________________________________________________________
[INFO/MainProcess/__main__]: Dimensionality of data: 149 x 200 x 3
[INFO/MainProcess/__main__]: _________________________________________________________________
[INFO/MainProcess/__main__]: Layer (type)                 Output Shape              Param #   
[INFO/MainProcess/__main__]: =================================================================
[INFO/MainProcess/__main__]: input_1 (InputLayer)         (None, 149, 200, 3)       0         
[INFO/MainProcess/__main__]: _________________________________________________________________
[INFO/MainProcess/__main__]: conv2d_1 (Conv2D)            (None, 149, 40, 16)       1216      
[INFO/MainProcess/__main__]: _________________________________________________________________
[INFO/MainProcess/__main__]: max_pooling2d_1 (MaxPooling2 (None, 149, 8, 16)        0         
[INFO/MainProcess/__main__]: _________________________________________________________________
[INFO/MainProcess/__main__]: conv2d_2 (Conv2D)            (None, 149, 2, 8)         3208      
[INFO/MainProcess/__main__]: _________________________________________________________________
[INFO/MainProcess/__main__]: max_pooling2d_2 (MaxPooling2 (None, 149, 1, 8)         0         
[INFO/MainProcess/__main__]: _________________________________________________________________
[INFO/MainProcess/__main__]: conv2d_3 (Conv2D)            (None, 149, 1, 4)         804       
[INFO/MainProcess/__main__]: _________________________________________________________________
[INFO/MainProcess/__main__]: max_pooling2d_3 (MaxPooling2 (None, 149, 1, 4)         0         
[INFO/MainProcess/__main__]: _________________________________________________________________
[INFO/MainProcess/__main__]: flatten_1 (Flatten)          (None, 596)               0         
[INFO/MainProcess/__main__]: =================================================================
[INFO/MainProcess/__main__]: Total params: 5,228
[INFO/MainProcess/__main__]: Trainable params: 5,228
[INFO/MainProcess/__main__]: Non-trainable params: 0
[INFO/MainProcess/__main__]: _________________________________________________________________
[INFO/MainProcess/__main__]: _________________________________________________________________
[INFO/MainProcess/__main__]: Layer (type)                 Output Shape              Param #   
[INFO/MainProcess/__main__]: =================================================================
[INFO/MainProcess/__main__]: input_2 (InputLayer)         (None, 596)               0         
[INFO/MainProcess/__main__]: _________________________________________________________________
[INFO/MainProcess/__main__]: reshape_1 (Reshape)          (None, 149, 1, 4)         0         
[INFO/MainProcess/__main__]: _________________________________________________________________
[INFO/MainProcess/__main__]: conv2d_4 (Conv2D)            (None, 149, 1, 4)         404       
[INFO/MainProcess/__main__]: _________________________________________________________________
[INFO/MainProcess/__main__]: up_sampling2d_1 (UpSampling2 (None, 149, 2, 4)         0         
[INFO/MainProcess/__main__]: _________________________________________________________________
[INFO/MainProcess/__main__]: conv2d_5 (Conv2D)            (None, 149, 2, 4)         404       
[INFO/MainProcess/__main__]: _________________________________________________________________
[INFO/MainProcess/__main__]: up_sampling2d_2 (UpSampling2 (None, 149, 8, 4)         0         
[INFO/MainProcess/__main__]: _________________________________________________________________
[INFO/MainProcess/__main__]: conv2d_6 (Conv2D)            (None, 149, 8, 8)         808       
[INFO/MainProcess/__main__]: _________________________________________________________________
[INFO/MainProcess/__main__]: up_sampling2d_3 (UpSampling2 (None, 149, 40, 8)        0         
[INFO/MainProcess/__main__]: _________________________________________________________________
[INFO/MainProcess/__main__]: conv2d_7 (Conv2D)            (None, 149, 40, 16)       3216      
[INFO/MainProcess/__main__]: _________________________________________________________________
[INFO/MainProcess/__main__]: up_sampling2d_4 (UpSampling2 (None, 149, 200, 16)      0         
[INFO/MainProcess/__main__]: _________________________________________________________________
[INFO/MainProcess/__main__]: conv2d_8 (Conv2D)            (None, 149, 200, 3)       435       
[INFO/MainProcess/__main__]: =================================================================
[INFO/MainProcess/__main__]: Total params: 5,267
[INFO/MainProcess/__main__]: Trainable params: 5,267
[INFO/MainProcess/__main__]: Non-trainable params: 0
[INFO/MainProcess/__main__]: _________________________________________________________________
[INFO/MainProcess/__main__]: Epoch 0 / loss 0.46935675983958774 / validation loss 0.4504186161633196
[INFO/MainProcess/__main__]: Time needed: 31 seconds
[INFO/MainProcess/__main__]: Dimensionality of data: 149 x 200 x 3
[INFO/MainProcess/__main__]: _________________________________________________________________
[INFO/MainProcess/__main__]: Layer (type)                 Output Shape              Param #   
[INFO/MainProcess/__main__]: =================================================================
[INFO/MainProcess/__main__]: input_1 (InputLayer)         (None, 149, 200, 3)       0         
[INFO/MainProcess/__main__]: _________________________________________________________________
[INFO/MainProcess/__main__]: conv2d_1 (Conv2D)            (None, 149, 40, 16)       1216      
[INFO/MainProcess/__main__]: _________________________________________________________________
[INFO/MainProcess/__main__]: max_pooling2d_1 (MaxPooling2 (None, 149, 8, 16)        0         
[INFO/MainProcess/__main__]: _________________________________________________________________
[INFO/MainProcess/__main__]: conv2d_2 (Conv2D)            (None, 149, 2, 8)         3208      
[INFO/MainProcess/__main__]: _________________________________________________________________
[INFO/MainProcess/__main__]: max_pooling2d_2 (MaxPooling2 (None, 149, 1, 8)         0         
[INFO/MainProcess/__main__]: _________________________________________________________________
[INFO/MainProcess/__main__]: conv2d_3 (Conv2D)            (None, 149, 1, 4)         804       
[INFO/MainProcess/__main__]: _________________________________________________________________
[INFO/MainProcess/__main__]: max_pooling2d_3 (MaxPooling2 (None, 149, 1, 4)         0         
[INFO/MainProcess/__main__]: _________________________________________________________________
[INFO/MainProcess/__main__]: flatten_1 (Flatten)          (None, 596)               0         
[INFO/MainProcess/__main__]: =================================================================
[INFO/MainProcess/__main__]: Total params: 5,228
[INFO/MainProcess/__main__]: Trainable params: 5,228
[INFO/MainProcess/__main__]: Non-trainable params: 0
[INFO/MainProcess/__main__]: _________________________________________________________________
[INFO/MainProcess/__main__]: _________________________________________________________________
[INFO/MainProcess/__main__]: Layer (type)                 Output Shape              Param #   
[INFO/MainProcess/__main__]: =================================================================
[INFO/MainProcess/__main__]: input_2 (InputLayer)         (None, 596)               0         
[INFO/MainProcess/__main__]: _________________________________________________________________
[INFO/MainProcess/__main__]: reshape_1 (Reshape)          (None, 149, 1, 4)         0         
[INFO/MainProcess/__main__]: _________________________________________________________________
[INFO/MainProcess/__main__]: conv2d_4 (Conv2D)            (None, 149, 1, 4)         404       
[INFO/MainProcess/__main__]: _________________________________________________________________
[INFO/MainProcess/__main__]: up_sampling2d_1 (UpSampling2 (None, 149, 2, 4)         0         
[INFO/MainProcess/__main__]: _________________________________________________________________
[INFO/MainProcess/__main__]: conv2d_5 (Conv2D)            (None, 149, 2, 4)         404       
[INFO/MainProcess/__main__]: _________________________________________________________________
[INFO/MainProcess/__main__]: up_sampling2d_2 (UpSampling2 (None, 149, 8, 4)         0         
[INFO/MainProcess/__main__]: _________________________________________________________________
[INFO/MainProcess/__main__]: conv2d_6 (Conv2D)            (None, 149, 8, 8)         808       
[INFO/MainProcess/__main__]: _________________________________________________________________
[INFO/MainProcess/__main__]: up_sampling2d_3 (UpSampling2 (None, 149, 40, 8)        0         
[INFO/MainProcess/__main__]: _________________________________________________________________
[INFO/MainProcess/__main__]: conv2d_7 (Conv2D)            (None, 149, 40, 16)       3216      
[INFO/MainProcess/__main__]: _________________________________________________________________
[INFO/MainProcess/__main__]: up_sampling2d_4 (UpSampling2 (None, 149, 200, 16)      0         
[INFO/MainProcess/__main__]: _________________________________________________________________
[INFO/MainProcess/__main__]: conv2d_8 (Conv2D)            (None, 149, 200, 3)       435       
[INFO/MainProcess/__main__]: =================================================================
[INFO/MainProcess/__main__]: Total params: 5,267
[INFO/MainProcess/__main__]: Trainable params: 5,267
[INFO/MainProcess/__main__]: Non-trainable params: 0
[INFO/MainProcess/__main__]: _________________________________________________________________
[INFO/MainProcess/__main__]: Epoch 0 / loss 0.47142733126216463 / validation loss 0.44485682249069214
…
[INFO/MainProcess/__main__]: Epoch 54 / loss 0.4349580493768056 / validation loss 0.43180532085484474
[INFO/MainProcess/__main__]: Epoch 55 / loss 0.4348573897149828 / validation loss 0.43154999510995273
[INFO/MainProcess/__main__]: Dimensionality of data: 149 x 200 x 3
[INFO/MainProcess/__main__]: _________________________________________________________________
[INFO/MainProcess/__main__]: Layer (type)                 Output Shape              Param #   
[INFO/MainProcess/__main__]: =================================================================
[INFO/MainProcess/__main__]: input_1 (InputLayer)         (None, 149, 200, 3)       0         
[INFO/MainProcess/__main__]: _________________________________________________________________
[INFO/MainProcess/__main__]: conv2d_1 (Conv2D)            (None, 149, 40, 16)       1216      
[INFO/MainProcess/__main__]: _________________________________________________________________
[INFO/MainProcess/__main__]: max_pooling2d_1 (MaxPooling2 (None, 149, 8, 16)        0         
[INFO/MainProcess/__main__]: _________________________________________________________________
[INFO/MainProcess/__main__]: conv2d_2 (Conv2D)            (None, 149, 2, 8)         3208      
[INFO/MainProcess/__main__]: _________________________________________________________________
[INFO/MainProcess/__main__]: max_pooling2d_2 (MaxPooling2 (None, 149, 1, 8)         0         
[INFO/MainProcess/__main__]: _________________________________________________________________
[INFO/MainProcess/__main__]: conv2d_3 (Conv2D)            (None, 149, 1, 4)         804       
[INFO/MainProcess/__main__]: _________________________________________________________________
[INFO/MainProcess/__main__]: max_pooling2d_3 (MaxPooling2 (None, 149, 1, 4)         0         
[INFO/MainProcess/__main__]: _________________________________________________________________
[INFO/MainProcess/__main__]: flatten_1 (Flatten)          (None, 596)               0         
[INFO/MainProcess/__main__]: _________________________________________________________________
[INFO/MainProcess/__main__]: dense_1 (Dense)              (None, 100)               59700     
[INFO/MainProcess/__main__]: =================================================================
[INFO/MainProcess/__main__]: Total params: 64,928
[INFO/MainProcess/__main__]: Trainable params: 64,928
[INFO/MainProcess/__main__]: Non-trainable params: 0
[INFO/MainProcess/__main__]: _________________________________________________________________
[INFO/MainProcess/__main__]: _________________________________________________________________
[INFO/MainProcess/__main__]: Layer (type)                 Output Shape              Param #   
[INFO/MainProcess/__main__]: =================================================================
[INFO/MainProcess/__main__]: input_2 (InputLayer)         (None, 100)               0         
[INFO/MainProcess/__main__]: _________________________________________________________________
[INFO/MainProcess/__main__]: dense_2 (Dense)              (None, 596)               60196     
[INFO/MainProcess/__main__]: _________________________________________________________________
[INFO/MainProcess/__main__]: reshape_1 (Reshape)          (None, 149, 1, 4)         0         
[INFO/MainProcess/__main__]: _________________________________________________________________
[INFO/MainProcess/__main__]: conv2d_4 (Conv2D)            (None, 149, 1, 4)         404       
[INFO/MainProcess/__main__]: _________________________________________________________________
[INFO/MainProcess/__main__]: up_sampling2d_1 (UpSampling2 (None, 149, 2, 4)         0         
[INFO/MainProcess/__main__]: _________________________________________________________________
[INFO/MainProcess/__main__]: conv2d_5 (Conv2D)            (None, 149, 2, 4)         404       
[INFO/MainProcess/__main__]: _________________________________________________________________
[INFO/MainProcess/__main__]: up_sampling2d_2 (UpSampling2 (None, 149, 8, 4)         0         
[INFO/MainProcess/__main__]: _________________________________________________________________
[INFO/MainProcess/__main__]: conv2d_6 (Conv2D)            (None, 149, 8, 8)         808       
[INFO/MainProcess/__main__]: _________________________________________________________________
[INFO/MainProcess/__main__]: up_sampling2d_3 (UpSampling2 (None, 149, 40, 8)        0         
[INFO/MainProcess/__main__]: _________________________________________________________________
[INFO/MainProcess/__main__]: conv2d_7 (Conv2D)            (None, 149, 40, 16)       3216      
[INFO/MainProcess/__main__]: _________________________________________________________________
[INFO/MainProcess/__main__]: up_sampling2d_4 (UpSampling2 (None, 149, 200, 16)      0         
[INFO/MainProcess/__main__]: _________________________________________________________________
[INFO/MainProcess/__main__]: conv2d_8 (Conv2D)            (None, 149, 200, 3)       435       
[INFO/MainProcess/__main__]: =================================================================
[INFO/MainProcess/__main__]: Total params: 65,463
[INFO/MainProcess/__main__]: Trainable params: 65,463
[INFO/MainProcess/__main__]: Non-trainable params: 0
[INFO/MainProcess/__main__]: _________________________________________________________________
[INFO/MainProcess/__main__]: Epoch 0 / loss 0.46850267132123313 / validation loss 0.4491081381666249
…
[INFO/MainProcess/__main__]: Epoch 0 / loss 0.4712080143557654 / validation loss 0.45147411473866167
[INFO/MainProcess/__main__]: Time needed: 472 seconds
[INFO/MainProcess/__main__]: Lerning with a single channel
[INFO/MainProcess/__main__]: Dimensionality of data: 149 x 200 x 1
[INFO/MainProcess/__main__]: _________________________________________________________________
[INFO/MainProcess/__main__]: Layer (type)                 Output Shape              Param #   
[INFO/MainProcess/__main__]: =================================================================
[INFO/MainProcess/__main__]: input_1 (InputLayer)         (None, 149, 200, 1)       0         
[INFO/MainProcess/__main__]: _________________________________________________________________
[INFO/MainProcess/__main__]: conv2d_1 (Conv2D)            (None, 149, 40, 16)       416       
[INFO/MainProcess/__main__]: _________________________________________________________________
[INFO/MainProcess/__main__]: max_pooling2d_1 (MaxPooling2 (None, 149, 8, 16)        0         
[INFO/MainProcess/__main__]: _________________________________________________________________
[INFO/MainProcess/__main__]: conv2d_2 (Conv2D)            (None, 149, 2, 8)         3208      
[INFO/MainProcess/__main__]: _________________________________________________________________
[INFO/MainProcess/__main__]: max_pooling2d_2 (MaxPooling2 (None, 149, 1, 8)         0         
[INFO/MainProcess/__main__]: _________________________________________________________________
[INFO/MainProcess/__main__]: conv2d_3 (Conv2D)            (None, 149, 1, 4)         804       
[INFO/MainProcess/__main__]: _________________________________________________________________
[INFO/MainProcess/__main__]: max_pooling2d_3 (MaxPooling2 (None, 149, 1, 4)         0         
[INFO/MainProcess/__main__]: _________________________________________________________________
[INFO/MainProcess/__main__]: flatten_1 (Flatten)          (None, 596)               0         
[INFO/MainProcess/__main__]: _________________________________________________________________
[INFO/MainProcess/__main__]: dense_1 (Dense)              (None, 100)               59700     
[INFO/MainProcess/__main__]: =================================================================
[INFO/MainProcess/__main__]: Total params: 64,128
[INFO/MainProcess/__main__]: Trainable params: 64,128
[INFO/MainProcess/__main__]: Non-trainable params: 0
[INFO/MainProcess/__main__]: _________________________________________________________________
[INFO/MainProcess/__main__]: _________________________________________________________________
[INFO/MainProcess/__main__]: Layer (type)                 Output Shape              Param #   
[INFO/MainProcess/__main__]: =================================================================
[INFO/MainProcess/__main__]: input_2 (InputLayer)         (None, 100)               0         
[INFO/MainProcess/__main__]: _________________________________________________________________
[INFO/MainProcess/__main__]: dense_2 (Dense)              (None, 596)               60196     
[INFO/MainProcess/__main__]: _________________________________________________________________
[INFO/MainProcess/__main__]: reshape_1 (Reshape)          (None, 149, 1, 4)         0         
[INFO/MainProcess/__main__]: _________________________________________________________________
[INFO/MainProcess/__main__]: conv2d_4 (Conv2D)            (None, 149, 1, 4)         404       
[INFO/MainProcess/__main__]: _________________________________________________________________
[INFO/MainProcess/__main__]: up_sampling2d_1 (UpSampling2 (None, 149, 2, 4)         0         
[INFO/MainProcess/__main__]: _________________________________________________________________
[INFO/MainProcess/__main__]: conv2d_5 (Conv2D)            (None, 149, 2, 4)         404       
[INFO/MainProcess/__main__]: _________________________________________________________________
[INFO/MainProcess/__main__]: up_sampling2d_2 (UpSampling2 (None, 149, 8, 4)         0         
[INFO/MainProcess/__main__]: _________________________________________________________________
[INFO/MainProcess/__main__]: conv2d_6 (Conv2D)            (None, 149, 8, 8)         808       
[INFO/MainProcess/__main__]: _________________________________________________________________
[INFO/MainProcess/__main__]: up_sampling2d_3 (UpSampling2 (None, 149, 40, 8)        0         
[INFO/MainProcess/__main__]: _________________________________________________________________
[INFO/MainProcess/__main__]: conv2d_7 (Conv2D)            (None, 149, 40, 16)       3216      
[INFO/MainProcess/__main__]: _________________________________________________________________
[INFO/MainProcess/__main__]: up_sampling2d_4 (UpSampling2 (None, 149, 200, 16)      0         
[INFO/MainProcess/__main__]: _________________________________________________________________
[INFO/MainProcess/__main__]: conv2d_8 (Conv2D)            (None, 149, 200, 1)       145       
[INFO/MainProcess/__main__]: =================================================================
[INFO/MainProcess/__main__]: Total params: 65,173
[INFO/MainProcess/__main__]: Trainable params: 65,173
[INFO/MainProcess/__main__]: Non-trainable params: 0
[INFO/MainProcess/__main__]: _________________________________________________________________
[INFO/MainProcess/__main__]: Epoch 0 / loss 0.544271146774292 / validation loss 0.5550527336268589
…
